{"class_name": "Sequential", "config": {"name": "sequential_4", "layers": [{"class_name": "Embedding", "config": {"name": "embedding_4", "trainable": true, "batch_input_shape": [null, 81], "dtype": "float32", "input_dim": 21, "output_dim": 21, "embeddings_initializer": {"class_name": "RandomUniform", "config": {"minval": -0.05, "maxval": 0.05, "seed": null}}, "embeddings_regularizer": null, "activity_regularizer": null, "embeddings_constraint": null, "mask_zero": false, "input_length": 81}}, {"class_name": "GRU", "config": {"name": "gru_7", "trainable": true, "batch_input_shape": [null, 81, 26], "dtype": "float32", "return_sequences": true, "return_state": false, "go_backwards": false, "stateful": false, "unroll": false, "units": 256, "activation": "tanh", "recurrent_activation": "hard_sigmoid", "use_bias": true, "kernel_initializer": {"class_name": "VarianceScaling", "config": {"scale": 1.0, "mode": "fan_avg", "distribution": "uniform", "seed": null}}, "recurrent_initializer": {"class_name": "Orthogonal", "config": {"gain": 1.0, "seed": null}}, "bias_initializer": {"class_name": "Zeros", "config": {}}, "kernel_regularizer": null, "recurrent_regularizer": null, "bias_regularizer": null, "activity_regularizer": null, "kernel_constraint": null, "recurrent_constraint": null, "bias_constraint": null, "dropout": 0.0, "recurrent_dropout": 0.0, "implementation": 1, "reset_after": false}}, {"class_name": "Dropout", "config": {"name": "dropout_7", "trainable": true, "rate": 0.2, "noise_shape": null, "seed": null}}, {"class_name": "GRU", "config": {"name": "gru_8", "trainable": true, "return_sequences": true, "return_state": false, "go_backwards": false, "stateful": false, "unroll": false, "units": 256, "activation": "tanh", "recurrent_activation": "hard_sigmoid", "use_bias": true, "kernel_initializer": {"class_name": "VarianceScaling", "config": {"scale": 1.0, "mode": "fan_avg", "distribution": "uniform", "seed": null}}, "recurrent_initializer": {"class_name": "Orthogonal", "config": {"gain": 1.0, "seed": null}}, "bias_initializer": {"class_name": "Zeros", "config": {}}, "kernel_regularizer": null, "recurrent_regularizer": null, "bias_regularizer": null, "activity_regularizer": null, "kernel_constraint": null, "recurrent_constraint": null, "bias_constraint": null, "dropout": 0.0, "recurrent_dropout": 0.0, "implementation": 1, "reset_after": false}}, {"class_name": "Dropout", "config": {"name": "dropout_8", "trainable": true, "rate": 0.2, "noise_shape": null, "seed": null}}, {"class_name": "TimeDistributed", "config": {"name": "time_distributed_4", "trainable": true, "layer": {"class_name": "Dense", "config": {"name": "dense_4", "trainable": true, "units": 21, "activation": "softmax", "use_bias": true, "kernel_initializer": {"class_name": "VarianceScaling", "config": {"scale": 1.0, "mode": "fan_avg", "distribution": "uniform", "seed": null}}, "bias_initializer": {"class_name": "Zeros", "config": {}}, "kernel_regularizer": null, "bias_regularizer": null, "activity_regularizer": null, "kernel_constraint": null, "bias_constraint": null}}}}]}, "keras_version": "2.2.4", "backend": "tensorflow"}